model.pt (torch, 326400 bytes, 4 tensors)

fc1.weight f4 [100, 784]
00000000: d8db 983b 8e7a f73c 6060 733b 8aae 5ebc
00000010: ac1b 9c3c 2215 d73c 06d3 db3c d38e dfbc
00000020: ae27 dd3c cb73 0bbd 2fcb 083d 7821 e4bb
00000030: 0034 493b 650d e2bc 3a52 8abc 5a4c be3c
00000040: 25c1 83bc 9e10 b33c 3391 9bbc b8e9 913c
00000050: 0bc1 00bd e0a1 d03c 7003 9abb ce23 34bc
00000060: eeba c83c 7001 8a3c a6ec f13c 18f0 fbbc
00000070: 0cdd b33c 008a beba 6630 72bc fcc2 383c
00000080: 730e a0bc 0e4f c93c 488f fcbb 35a7 0d3d
00000090: b0bb 543c cadc c9bc 0914 073d 1605 f73c
000000a0: 2eb6 5ebc fcf7 6c3c 36c1 953c 322e 1ebc
000000b0: e37d 0b3d cc43 c43c ec3c 173b ff4f 833b
000000c0: 78cd 1f3c eabf 24bc 17d1 023d 5527 123d
000000d0: 76d5 ef3c f8ba 96bb c03c df3a 801e 483c
000000e0: c0e8 45ba 201c b13c b80f 8d3b eaae 34bc
000000f0: 3351 85bc 0e23 e23c 2ec5 d7bc dc53 a73c
00000100: 3a09 c7bc bdb2 c5bc 2088 c93c fc4c 003c
00000110: 4f1d 3cbc feb8 ac3c 067e 9bbc fda8 ba3b
00000120: cc51 dcbc 5478 99bc db3b cb3c 874a 9cbc
00000130: 0149 eebc 0633 f13c 47a4 8cbc 1e0e a03c
00000140: 2853 c6bc 86d7 cd3c 30d8 6a3c db5d 08bd
00000150: 7c62 e6bc 7846 083c 03ec dcbc 304c 90bc
00000160: d110 d63c ca25 69bc e508 94bc 9157 e8bc
00000170: 3bf6 1bbd c33b a23c c665 bcbc 3c8e 1c3d
00000180: 179f 5ebb bb24 80bc f64d b13c e728 4cbc
00000190: 4859 b4bc 8634 83bc 36f2 8abc 0c9e 3cbc
000001a0: a996 f83c 709f 2e3c 616c 113d 4a4d a23c
000001b0: 3eb9 82bc 7ed8 d23c 202c 23bc 307b 53bb
000001c0: c27f df3c 88aa a7bb 57df 6cbc bba7 9c3c
000001d0: af50 bcbc 446c 2e3c cef7 b4bc c4ac 053c
000001e0: 7db6 02bc 819f 4dbc ed54 97bb faac 2e3c
000001f0: 9fce 8e3c a473 96ba f5d9 013d 8e21 a8bc
00000200: e02f fc3c 09d7 96bc bd4e 943c aaa2 1dbd
00000210: 3b42 2a3a c0f6 27bd a518 9ebc 62a3 b63c
00000220: 1028 5dbb f0ce da3b 70cc 283b 5633 bb3c
00000230: 5763 00bd 806a eabb c105 253c 2dd2 9bba
00000240: d5c6 26bd 1ee9 203b 82db 8abc 082e 1ebd
00000250: b16e 14bd 0fbb e4bb 4d11 a33c 41cb e23c
00000260: 0e87 f6bb 24dc 93bc bbbf a03c 07ec 15bd
00000270: 0f02 e2bb 0060 02bd 1d8a 61bc 38cb 62bb
00000280: 7652 e6bc 72c8 29bd 6521 623b 0cfc bbbc
00000290: 30eb 5c3c 8639 38bc 1e75 a83c d802 9e3c
000002a0: 0e60 d83c 8f4a 423b 3a02 9dbb ceaa 25bd
000002b0: 088d 19bd e462 143c 40ad f83c 9c31 13bd
000002c0: 3021 743c 4c88 c5bc 7734 96bc 7c59 d6bc
000002d0: 3e78 09bd 87eb 1ebd f2f1 ddbc d868 243c
000002e0: 1592 bcbc ee9d 843c 78b7 033b a662 87bc
000002f0: 20c8 ea3c 6820 7b3a f9eb 03bc 268d 00bd
00000300: a683 ea3c 101a 0ebd 93a7 a4bc 00e5 08b9
00000310: b832 d03c 4f28 06bd d040 4d3c 265c 80bc
00000320: 8313 883b 5417 bdbc 2b95 c83b 6adb 8abc
00000330: 9917 a33a 8d67 dfbb 92f2 4a3c fbd3 03bd
00000340: a460 103b 0c2d dcbc cfd9 05bd b364 bcbb
00000350: 787e a03b 304c ebbc b8c1 703c f166 bebc
00000360: f068 48bc cd34 13bd 690d 223c 35f0 0cbd
00000370: 86e7 f33c 9988 0c3d 00a5 9bb9 ce17 dcbc
00000380: 6abc 4dbc 072c 893c a32a bc3c 6e36 f5bc
00000390: 7762 ccbb bd8d fcbc a5af 9ebc 8d29 b2bc
000003a0: 1d9e 7ebc 6057 403c 9222 2ebb 558a c3bc
000003b0: fb8e 3bbc cf84 153c ec41 9bbc c3a8 cfbb
000003c0: 60a0 50bc b1c6 8bbb f454 2f3c 56f7 aaba
000003d0: e285 7a3c 9156 3fbc 0849 52ba ef80 80bc
000003e0: 8c89 b93c 26f5 18bc 421b 993c e26f ef3c
000003f0: a0d8 f43b a34b abbc 93ee a9bc 1d6d e23c
0.0046648793 0.030209806 0.0037136301 -0.013591418 0.019056164 0.026255194 0.026834022 -0.027289784
0.02699646 -0.034045976 0.033396896 -0.0069619976 0.003070116 -0.027594278 -0.016884912 0.023229767
-0.01608331 0.02185851 -0.018990135 0.017811641 -0.0314341 0.025467813 -0.004700117 -0.010994865
0.024503198 0.016846389 0.029531788 -0.030754134 0.02195599 -0.0014536977 -0.014782047 0.011276957
-0.01953814 0.024573829 -0.00770751 0.03458329 0.012984201 -0.024641413 0.03297809 0.030153792
-0.01359324 0.014463421 0.018280607 -0.0096545685 0.0340556 0.02395811 0.0023077084 0.004007339
0.009753577 -0.0100555215 0.031937685 0.03568204 0.02927659 -0.004599925 0.0017031655 0.012214303
-0.0007549636 0.021619856 0.0043048523 -0.011028031 -0.01627407 0.027604606 -0.02633914 0.02042573
-0.024296392 -0.02413308 0.024601042 0.0078308545 -0.011481597 0.021084305 -0.018980991 0.0056964145
-0.026894473 -0.018734135 0.024808815 -0.019078506 -0.029087545 0.029443275 -0.017168177 0.019537982
-0.024209574 0.025127184 0.01433377 -0.033292633 -0.028123133 0.008317582 -0.026968008 -0.017614454
0.026131066 -0.014230201 -0.018070647 -0.028362067 -0.03807662 0.019803887 -0.022997748 0.038221583
-0.0033969337 -0.015642514 0.02164362 -0.012460924 -0.022015229 -0.016016256 -0.016961198 -0.011512291
0.030345278 0.01065813 0.03550375 0.019812245 -0.015957471 0.025737997 -0.009959251 -0.003226947
0.0272826 -0.0051167645 -0.014457545 0.019122949 -0.022987692 0.01064593 -0.022090819 0.008158866
-0.007978079 -0.012550236 -0.0046182782 0.010661358 0.017432509 -0.0011478555 0.031702 -0.020523813
0.030784547 -0.018413084 0.018103952 -0.038485207 0.00064948545 -0.041006804 -0.01929886 0.022294704
-0.0033745803 0.006677501 0.002575662 0.022851627 -0.031344738 -0.007153809 0.010072173 -0.0011888199
-0.040716965 0.0024553011 -0.016950373 -0.038618118 -0.036238376 -0.006980307 0.01990571 0.02768481
-0.007523424 -0.018049307 0.019622674 -0.036602046 -0.006897218 -0.031829834 -0.013765839 -0.003460599
-0.028115492 -0.041450925 0.0034504768 -0.022947334 0.013483807 -0.011244183 0.020563658 0.019288465
0.02641299 0.0029646491 -0.004791525 -0.040446095 -0.037488014 0.0090567805 0.03035605 -0.035935983
0.014900491 -0.024112843 -0.018335564 -0.026165716 -0.033561938 -0.038798835 -0.027092908 0.010034762
-0.023018876 0.016188588 0.002009837 -0.016526531 0.02865988 0.0009579719 -0.008051866 -0.03138461
0.028627228 -0.034692824 -0.020099437 -0.0001305528 0.02541481 -0.032753285 0.01252766 -0.01566894
0.0041527166 -0.023082413 0.006121298 -0.016950328 0.0012442946 -0.006817764 0.012386935 -0.032184582
0.0022030259 -0.026876949 -0.03267842 -0.005749309 0.0048978887 -0.028722852 0.014694624 -0.023242446
-0.01223205 -0.035939027 0.009890893 -0.034408767 0.029773485 0.034309957 -0.00029686838 -0.02686682
-0.012557128 0.016744627 0.02296955 -0.02993318 -0.006237324 -0.030829305 -0.019370863 -0.021748329
-0.015540627 0.011739582 -0.0026570898 -0.023869673 -0.011447663 0.009125902 -0.018952332 -0.0063372566
-0.012733549 -0.004265629 0.010701407 -0.0013043683 0.015290709 -0.011678354 -0.0008021747 -0.01568648
0.022648595 -0.009335792 0.018689755 0.029228155 0.007472113 -0.02091009 -0.020743644 0.02763992

fc1.bias f4 [100]
00000000: f508 b9bc 2020 a8bc 2908 c5bc 76ad 7ebf
00000010: af8d 5dbb 2c04 6abd bc6a 3ac0 8767 a73d
00000020: fa40 b3bd a0eb 6fbb 9b8f 613f a738 d23c
00000030: 1063 35bd 1010 783f c30f a43b b613 703f
00000040: 5c7a d9bd 7357 67bd 1659 e6bc 70e7 b23f
00000050: 2f62 90bd f9a7 7ebc 918d 30c0 7fc1 043b
00000060: 9793 8c3f 78c5 443d 68cc 45bd 53ce f5bc
00000070: 4169 88bd 501c 64c0 799b babc 2b62 76bf
00000080: 4c17 8ebe 5f6d 80c0 2f19 d8bf e619 e3bc
00000090: a31f 2fbd 1a03 bdbd 720c 20bd 2900 3b3e
000000a0: 9aad c03c 67af 90b9 0cb8 1bbe 5408 8e3b
000000b0: 5e55 1e40 3e4c 94bd 2f4a 0abc 55e0 0a3e
000000c0: d4c7 eb3f 6c34 bfbf 4333 3abd 3fb4 92bd
000000d0: 21b3 5d3e f610 64bc 42e1 b33e df88 d1bd
000000e0: 1df2 e9bc 0079 113e 7723 f6bf 3713 77bc
000000f0: b06e 9fbc 1f73 ef3a ea30 51bd ea53 653c
00000100: 841c 9bbc 1be6 113c cca9 b7be 770d 38bd
00000110: 33c2 36bd d3a2 8e3a b6cc d5be 2f7e 9dbc
00000120: b38b 08bd cb07 3dbd d9cb e7ba 8a11 85bf
00000130: aa90 9a3b 5f85 55bf 8b46 29bd 6a6b e9bc
00000140: 79f6 6ebe e837 27bf ad92 da3e ba12 c23c
00000150: cb50 913e 9c64 79bf d13f 91bc 6e52 30bd
00000160: 1b0c 79bd c3e9 98be bba6 ccbd 6f10 aa3c
00000170: 33bc db3b d0ee 9ebd 0302 0a3f f56b e33d
00000180: 0b2d eabc ba4f 63bc 0b46 76be 9580 0ebd
-0.022587279 -0.02052313 -0.024051743 -0.9948343 -0.0033806374 -0.057132885 -2.9127645 0.08174043
-0.08752628 -0.003660895 0.8810975 0.02566178 -0.044283926 0.9689951 0.0050067618 0.93780077
-0.10619041 -0.056479882 -0.028118651 1.3976879 -0.07049977 -0.0155429775 -2.7586405 0.0020256934
1.0982541 0.048039883 -0.04829064 -0.03000561 -0.066607006 -3.564228 -0.022779213 -0.9624354
-0.2775215 -4.013351 -1.6882685 -0.02772231 -0.04275478 -0.09229107 -0.03907437 0.1826178
0.02352028 -0.00027596505 -0.15206927 0.004334489 2.4739604 -0.072411045 -0.008440538 0.13562138
1.8420358 -1.4937873 -0.045459043 -0.071632855 0.21650364 -0.013920059 0.35132796 -0.10231184
-0.028557831 0.14206314 -1.9229573 -0.015080265 -0.01946196 0.0018268562 -0.05107204 0.013997057
-0.018934496 0.008904959 -0.35871732 -0.044934716 -0.044618797 0.0010882266 -0.41757745 -0.019225208
-0.033336353 -0.04615001 -0.0017684653 -1.0395977 0.0047169523 -0.83406633 -0.04132704 -0.028493602
-0.2333621 -0.6531968 0.4269003 0.02369057 0.28381953 -0.9741914 -0.017730625 -0.04304736
-0.06080256 -0.29865846 -0.09992739 0.02075979 0.0067057847 -0.077603936 0.5390932 0.111045755
-0.028585931 -0.013873989 -0.24050157 -0.034790594

fc2.weight f4 [26, 100]
00000000: 4f41 bc3d 3efa 193d 7224 8cba 8132 96bf
00000010: 4b53 b9bc 332a e1b9 f4d0 9a3c 4b02 41bd
00000020: 020d 19bb dbf1 f83c bddc 843a 0979 68bc
00000030: 1862 a1bd d0e4 8bbd f444 34bc edb3 51ba
00000040: 7ef8 27bd be12 3e3c c8a5 24bd 127c 03be
00000050: 57a6 4a3d c069 9d3d 81d3 2fbd e82f 8fbd
00000060: 8c3c d339 5ae0 a5bb d1f8 a8bd ff0c 96bc
00000070: acd7 22bc fc32 043d 85db 96bd b7ce a43c
00000080: f2e9 ffbe 7283 f63c d57a d93b 208c 0a3d
00000090: 8ad7 983d 4360 d43c 2810 ef3d 27b8 19be
000000a0: 84d5 75bd 6d2a 88bd 4aad abbe fdc1 813c
000000b0: 8a4c c5bb adbf d1bd 250c 6bbd df8d 49be
000000c0: 1636 cb3c cdcb f6be 4db9 273d 067a 74bd
000000d0: 962c 893c 89f6 f0bd 0d74 6cbc e03b a43b
000000e0: d0f9 b83d 3adc ebbd 864d 723d 8ad8 0f3d
000000f0: 881e 37bd 664c aabc 1f3d 703d cbed 09bd
00000100: 7e30 fabb 7fbd b73d 7e79 0cbf 0959 063d
00000110: 7e49 a9bd 60e1 3b3c 14cf eebe c174 9f3d
00000120: 541b 903d 65e7 cd3c 2fca 17bd 7f9b 9a3c
00000130: ea70 d5bc 1f79 20bf 88e7 6e3d 2376 6c3d
00000140: b14f 87bd 44c2 08bd 372c 0f3d 2ce8 693d
00000150: 2af0 683d 258d e4be 4dc7 743d 9493 153d
00000160: ca44 bdbd 4c17 3cbe e8ca 60bc 11d1 9c3d
00000170: f99b 933d d5a1 403d 3cd3 8bbe 9630 c5ba
00000180: 55ab a63a 9fd8 b43d a5e7 5abf 78d4 4f3d
00000190: 0e25 d83c 3264 95bd 5a16 053d 2c4d 5ebf
000001a0: 146b 643d 13f8 cfbd 7210 023d 64eb 9bba
000001b0: fcf5 363d f122 b0bc d388 1abd 8965 2b3d
000001c0: ec90 00bc f33d c0bf 20b7 95bd 9796 cd3b
000001d0: 9371 3cbd 4c62 403d 2cfe babd c6c0 b1bb
000001e0: 2540 423c e19b 773b ba83 a0bc 34ef 8fbd
000001f0: 240f d0bc 0a0d 743c 6faf 1c3c 5a15 51bd
00000200: 6203 79bd 75d6 85bc 6975 d3bc cbec f3bd
00000210: b669 f6be 61ec 493d fbfb 31bf 4c6b 8bbc
00000220: 37fe b7bc 166f 033d ad0f c1bd efea b1bf
00000230: 2fd7 9ebd 9744 20bd b4a6 87be ce62 95bc
00000240: f069 0c3d cd65 643d 65f6 773d eb6a 15bf
00000250: 3dd1 ff3b c697 b33c 40e6 2e3d 11c9 75bc
00000260: 20e8 81bd 8f8e ae3c ea51 b93c d945 dfbd
00000270: f755 5e3d 2107 98bd fbda 4e3d c6b0 98bc
00000280: f5fc 80bd 7c1c 233c 328c 8d3b f6db 0d3c
00000290: 1296 a03c 2a48 4f3d 5b40 2fbf 4691 1e3d
000002a0: 5c1a f13c e276 81bd 7917 97be bf8e afbc
000002b0: 2248 b3bd 7b03 f63c cc7d afbd b8bd c03b
000002c0: 9624 87bd 3569 0fbe 1129 fdbc 6ef3 8fbd
000002d0: 26d0 043d 9188 0dbf d1f3 603d 4418 69bc
000002e0: 6962 9f3c cbbd 2fbf ea48 84bd 0f6f 53bd
000002f0: bc54 b0bd b190 20bf 3f8e 3fbd 5a39 5f3d
00000300: 33b6 1abc ea45 933c 4c1b 7fbf 339c b1bc
00000310: 6637 933d 7d5a 2ebd ce16 09bf 9692 673d
00000320: ba44 abbc 174a 683d bdfc bb3d c1a8 a2bc
00000330: 40cd 62bd a40d 913b 1099 183d 6be1 6238
00000340: cd0a 4fbc 1beb e4bc 080b 5e3c f782 a83c
00000350: 811b 6e3d ba02 1bbd f192 8e3d 4726 153d
00000360: a4dd 2cbd df6d 92bd 97e3 8fbd 852c 3fbc
00000370: 5e59 913c 909a aebd 401c 6f3c b78d a23b
00000380: 17e0 803c 2129 233d 5c00 133d c1d0 3c3d
00000390: 7b53 ca3a 43a3 05bd 6f56 e1bc c651 b23c
000003a0: c97a 84be 9112 bf3c 975a 0dbd 6c78 973d
000003b0: 1c3e 74bd e000 803b e212 52bd c9b0 0abe
000003c0: 4c9b a8bd 7f0d ac3d 2721 87be 90f0 173d
000003d0: 25f7 813d 5798 21bc 47f3 3e3c b00b bdbe
000003e0: 3393 c53c 2dca 17bd c5cb 06bd 0cb9 44bd
000003f0: b80e 103d 7639 44bd 047a c03c e332 dbbc
0.09192144 0.037592165 -0.0010692014 -1.1734163 -0.022622725 -0.00042946785 0.018898465 -0.047121327
-0.00233537 0.030388763 0.0010136586 -0.014189013 -0.07880038 -0.06830752 -0.011002768 -0.00079995283
-0.041008465 0.011601148 -0.040197164 -0.12840298 0.04947504 0.07686186 -0.042926315 -0.06991559
0.00040290167 -0.005062145 -0.08250583 -0.018316744 -0.0099391155 0.032275185 -0.07366089 0.0201181
-0.49983174 0.030091975 0.006636957 0.03382504 0.07462986 0.025924807 0.116730034 -0.15011655
-0.060018077 -0.06648717 -0.33530647 0.015839571 -0.006021087 -0.102416374 -0.05738463 -0.19683026
0.024806064 -0.48202363 0.0409482 -0.059686683 0.016744893 -0.11765773 -0.014431966 0.0050120205
0.09032023 -0.11516614 0.059155963 0.035118617 -0.04470685 -0.020788383 0.05865204 -0.033674043
-0.0076351753 0.089716904 -0.5487288 0.032799754 -0.08265971 0.011467308 -0.46642363 0.07785941
0.070364624 0.025134752 -0.03705805 0.018872974 -0.026054818 -0.62684816 0.058326274 0.05772985
-0.06606997 -0.03338839 0.034954276 0.057106182 0.056869663 -0.44638935 0.05976038 0.036517695
-0.09241636 -0.18368262 -0.013720252 0.07657064 0.07207484 0.047029335 -0.27309597 -0.0015044387
0.0012715856 0.0883038 -0.8550971 0.050739735 0.026384857 -0.07294501 0.03249202 -0.86836505
0.05576618 -0.10154738 0.031753965 -0.0011895713 0.044668183 -0.021501036 -0.037728142 0.04184488
-0.007847052 -1.5018905 -0.07310319 0.006274055 -0.04600675 0.046968743 -0.09130511 -0.0054245917
0.011856114 0.003778212 -0.019594062 -0.07028046 -0.025397845 0.014895687 0.009563311 -0.051045753
-0.06079424 -0.016337613 -0.025812821 -0.11910399 -0.48127526 0.049297694 -0.69525117 -0.017018937
-0.022460086 0.03208836 -0.09426818 -1.3899821 -0.07755887 -0.039127912 -0.26494372 -0.01823559
0.034280717 0.055761147 0.060537715 -0.5836627 0.0078069256 0.021922957 0.042700052 -0.015001551
-0.063431025 0.021308212 0.022622067 -0.10901994 0.0542812 -0.07423235 0.050501805 -0.01863898
-0.06298248 0.009955522 0.004319691 0.0086584 0.01960281 0.05060593 -0.68457574 0.038712762
0.029431514 -0.06321503 -0.29510096 -0.021430371 -0.087539926 0.030030956 -0.08568916 0.0058819912
-0.06598775 -0.14004977 -0.030903371 -0.070288524 0.03242507 -0.5528651 0.05492002 -0.014226977
0.019456105 -0.68648976 -0.0645922 -0.051619586 -0.08609912 -0.6272078 -0.046766516 0.054498054
-0.009442854 0.017977674 -0.99651027 -0.021680927 0.07188301 -0.042566765 -0.5355042 0.05653628
-0.020906795 0.056711283 0.091790654 -0.019855859 -0.055371523 0.004426675 0.037255347 5.4092536e-05
-0.012636852 -0.027944138 0.013552435 0.020570261 0.0581317 -0.037844397 0.069616206 0.036413457
-0.04220356 -0.071498625 -0.07025831 -0.011668329 0.017742809 -0.08525574 0.014594138 0.0049607414
0.015731854 0.039834145 0.035889015 0.04609752 0.0015436256 -0.0326264 -0.027507035 0.021767508
-0.25874928 0.023324283 -0.03451022 0.073960155 -0.059629545 0.0039063543 -0.05128754 -0.13544
-0.082327455 0.08401012 -0.2639248 0.037094653 0.06345967 -0.009862981 0.0116546815 -0.3692298
0.024118042 -0.037058044 -0.032909174 -0.048028037 0.035170287 -0.04790636 0.023495682 -0.026757663

fc2.bias f4 [26]
00000000: 09f5 1f40 b536 0d40 e699 12c0 3ca5 2640
00000010: 2df3 ecbf 5909 e0bf c4fe bcbf d2bc 48bd
00000020: 8572 5abf 856b 24c0 bbc9 ab3e 654f 13c0
00000030: 2e59 9e3f 885c be3f 572a a33f 070a f7be
00000040: 5652 b23f 5e60 cb3f 31b8 01c0 a658 1fc0
00000050: 57bd af3e 3732 cfbe a545 0440 5f02 803f
00000060: e4e3 8ebf e95a e4bf
2.4993308 2.206464 -2.2906432 2.603835 -1.8511711 -1.7502853 -1.4765248 -0.049008198
-0.8533099 -2.5690625 0.33552346 -2.3017209 1.2370965 1.4871988 1.2747296 -0.48249838
1.3931377 1.5888784 -2.0268672 -2.4897857 0.34324142 -0.40467998 2.0667508 1.0000724
-1.1163297 -1.7840244
